app/src/main/assets/mnist.tflite (tflite, 115744 bytes, 6 tensors)

sequential/conv2d/BiasAdd/ReadVariableOp/resource f4 [32]
00000000: f921 2dbc fd8b adbc 213f 2dbc 2db3 9dbc
00000010: b11d 31bd 4053 86bc b8f8 d63c 9423 d9bb
00000020: ce3e babd 1253 debd 4e35 98bc 93cd cfbc
00000030: 34c3 e7bd acae 92bd 08b6 373c b0cd e63c
00000040: 487a b5bc 0f88 05ba 2735 923d 68c1 893c
00000050: 0b74 69bc b3b7 babc a50e c4bd f6c4 0c3e
00000060: 015d f6bc ac77 833d d09e 23bd 848a 1cbb
00000070: 3ab0 e7bc 5504 993c c241 6abd c397 383d
-0.010567182 -0.021184916 -0.010574133 -0.019250477 -0.043241207 -0.016397119 0.026241645 -0.0066265557
-0.0909401 -0.10855688 -0.018580105 -0.02536658 -0.11316529 -0.07162222 0.011212833 0.028174251
-0.022153035 -0.00050938217 0.07139044 0.016815856 -0.014248858 -0.022792673 -0.09573106 0.1374701
-0.030073645 0.0641931 -0.039946377 -0.0023886273 -0.028282274 0.018678823 -0.057191618 0.045066606

sequential/conv2d_1/BiasAdd/ReadVariableOp/resource f4 [64]
00000000: c4a4 7abd 6cba 2cbc 16f8 28bd d28e f6bc
00000010: a09c 10bd f471 34bd 4ee2 a43c 9449 bcbc
00000020: 925f 343d e198 33bd 7ab3 46bc a188 25bc
00000030: 5931 2cbd a845 0bbd b5f5 a3bc 439e 773b
00000040: fbe8 fbbc 5a18 babc 3457 b13b 3cc2 93bc
00000050: 5722 0aba c684 a73c 0ddd 08bd ec64 2ebc
00000060: 854a 8dbc 81fa 66bd 14cf 86bc 7960 3fbd
00000070: c593 bcbc 82b0 21bc 6d51 b9bc 224e d6bc
00000080: 948d 6dbd 1e34 a5bc 5994 31bd a361 cc3c
00000090: 4c3e 4fbd bc35 cfbc eace 69bd fc05 8f3c
000000a0: ed4a a73b b9d1 c7bc d55c c5bc 9fd7 ddbc
000000b0: 006a 48bd 8882 5ebc 6971 3cbd 5437 80bd
000000c0: 55c8 80bd 876a e93b 1ac1 183c 1f4d c8bc
000000d0: 2e55 75bd 2477 393c 220f 593a e0d4 ed3a
000000e0: d610 d03c f744 b8bc d243 5b3c 7d55 85bd
000000f0: 6947 31bc e4cb 39bd 8af7 c03c 4a12 21bd
-0.06119229 -0.010542493 -0.04125222 -0.030097399 -0.03530562 -0.044053987 0.020127442 -0.022984304
0.044036455 -0.04384697 -0.0121277515 -0.010103376 -0.04203925 -0.034001976 -0.020014623 0.003778354
-0.030750742 -0.02271669 0.0054120068 -0.018036954 -0.0005269399 0.020449053 -0.033413935 -0.010644179
-0.017247448 -0.056391243 -0.016456164 -0.046722863 -0.02301968 -0.009868743 -0.022621835 -0.026160304
-0.057996348 -0.020166453 -0.043354366 0.0249489 -0.05059652 -0.025294177 -0.057082094 0.017458908
0.0051053674 -0.024391996 -0.024092117 -0.027080355 -0.048929214 -0.013580926 -0.046006594 -0.06260553
-0.0628821 0.0071232948 0.009323383 -0.024450837 -0.059895687 0.011319909 0.0008280148 0.0018145107
0.025398653 -0.022493823 0.013382869 -0.06510446 -0.010820248 -0.04536046 0.023555536 -0.039324082

sequential/dense/BiasAdd/ReadVariableOp/resource f4 [10]
00000000: 41bb 293c 6312 263e e506 353d 868f 4ebd
00000010: 16ab 03bd 0168 6e3d cdfa 75bc fb15 5d3d
00000020: 65bd 15be 5038 41bd
0.010359586 0.16217951 0.04419603 -0.050429843 -0.032145582 0.058204655 -0.015013409 0.05397604
-0.1462303 -0.047172844

sequential/dense/MatMul i1 [10, 9216] scale=0.004409886 zero_point=0
00000000: f4eb 00eb f1f8 fd07 05ef 04f9 0001 f500
00000010: fc10 04f7 0302 ff06 fff9 0106 11e6 f9fd
00000020: faf8 fa05 fb02 fc03 16f9 02fc 02fb fffc
00000030: 00fe 10ff fbfc f2f9 f900 edfa edff 0709
00000040: e7fe fc1a fbf5 fbf2 e8ed 01ff fefc e4f5
00000050: e90b 00e3 f502 02fc f7ee fffc 0605 fffe
00000060: f8fd ffee fb01 f302 f3f2 fcff ffe6 faf9
00000070: faf9 f7ee fefd eff8 fdfc f300 03f9 fb0f
00000080: f6fb f8ee 12f7 09e8 dc01 f305 fcee 0112
00000090: ea0b ea02 fb00 fde8 fdf7 f7fe 0bff ff04
000000a0: f100 f0e3 fef8 f8fc ddf9 fcf2 fdf1 00fc
000000b0: eff7 e1fa f9f5 fbfb 1805 fb00 0a01 eb06
000000c0: 0bec f9fb f302 f2e0 c4fb daf0 faf8 fdf3
000000d0: fd0d fce5 efdc 01f0 04fb 04f5 08e8 f8fe
000000e0: 01fe f2d4 0405 fd02 01f6 f60a f8f8 fd03
000000f0: dafc f304 faf4 eaee 04f5 ed00 d8ef ee04
-0.05291863 -0.0926076 0.0 -0.0926076 -0.06614829 -0.035279088 -0.013229658 0.0308692
0.02204943 -0.07496806 0.017639544 -0.0308692 0.0 0.004409886 -0.048508745 0.0
-0.017639544 0.070558175 0.017639544 -0.039688975 0.013229658 0.008819772 -0.004409886 0.026459316
-0.004409886 -0.0308692 0.004409886 0.026459316 0.07496806 -0.11465704 -0.0308692 -0.013229658
-0.026459316 -0.035279088 -0.026459316 0.02204943 -0.02204943 0.008819772 -0.017639544 0.013229658
0.09701749 -0.0308692 0.008819772 -0.017639544 0.008819772 -0.02204943 -0.004409886 -0.017639544
0.0 -0.008819772 0.070558175 -0.004409886 -0.02204943 -0.017639544 -0.0617384 -0.0308692
-0.0308692 0.0 -0.083787836 -0.026459316 -0.083787836 -0.004409886 0.0308692 0.039688975
-0.11024715 -0.008819772 -0.017639544 0.11465704 -0.02204943 -0.048508745 -0.02204943 -0.0617384
-0.10583726 -0.083787836 0.004409886 -0.004409886 -0.008819772 -0.017639544 -0.1234768 -0.048508745
-0.101427376 0.048508745 0.0 -0.1278867 -0.048508745 0.008819772 0.008819772 -0.017639544
-0.039688975 -0.07937795 -0.004409886 -0.017639544 0.026459316 0.02204943 -0.004409886 -0.008819772
-0.035279088 -0.013229658 -0.004409886 -0.07937795 -0.02204943 0.004409886 -0.05732852 0.008819772
-0.05732852 -0.0617384 -0.017639544 -0.004409886 -0.004409886 -0.11465704 -0.026459316 -0.0308692
-0.026459316 -0.0308692 -0.039688975 -0.07937795 -0.008819772 -0.013229658 -0.07496806 -0.035279088
-0.013229658 -0.017639544 -0.05732852 0.0 0.013229658 -0.0308692 -0.02204943 0.06614829
-0.04409886 -0.02204943 -0.035279088 -0.07937795 0.07937795 -0.039688975 0.039688975 -0.10583726
-0.1587559 0.004409886 -0.05732852 0.02204943 -0.017639544 -0.07937795 0.004409886 0.07937795
-0.09701749 0.048508745 -0.09701749 0.008819772 -0.02204943 0.0 -0.013229658 -0.10583726
-0.013229658 -0.039688975 -0.039688975 -0.008819772 0.048508745 -0.004409886 -0.004409886 0.017639544
-0.06614829 0.0 -0.070558175 -0.1278867 -0.008819772 -0.035279088 -0.035279088 -0.017639544
-0.154346 -0.0308692 -0.017639544 -0.0617384 -0.013229658 -0.06614829 0.0 -0.017639544
-0.07496806 -0.039688975 -0.13670647 -0.026459316 -0.0308692 -0.048508745 -0.02204943 -0.02204943
0.10583726 0.02204943 -0.02204943 0.0 0.04409886 0.004409886 -0.0926076 0.026459316
0.048508745 -0.08819772 -0.0308692 -0.02204943 -0.05732852 0.008819772 -0.0617384 -0.14111635
-0.26459315 -0.02204943 -0.16757567 -0.070558175 -0.026459316 -0.035279088 -0.013229658 -0.05732852
-0.013229658 0.05732852 -0.017639544 -0.119066924 -0.07496806 -0.1587559 0.004409886 -0.070558175
0.017639544 -0.02204943 0.017639544 -0.048508745 0.035279088 -0.10583726 -0.035279088 -0.008819772
0.004409886 -0.008819772 -0.0617384 -0.19403498 0.017639544 0.02204943 -0.013229658 0.008819772
0.004409886 -0.04409886 -0.04409886 0.04409886 -0.035279088 -0.035279088 -0.013229658 0.013229658
-0.16757567 -0.017639544 -0.05732852 0.017639544 -0.026459316 -0.05291863 -0.09701749 -0.07937795
0.017639544 -0.048508745 -0.083787836 0.0 -0.17639545 -0.07496806 -0.07937795 0.017639544

sequential/conv2d/Conv2D f4 [32, 3, 3, 1]
00000000: 53b9 393e beb5 303d d9d6 923d 41aa 8d3e
00000010: eb04 b23c 95f9 72be 0e8d 2c3c f6d5 14be
00000020: 38f4 67be 15e9 733e b79d 313e 8172 153d
00000030: 7d3e 183e cee8 a53d a45a 0f3d 3988 a2be
00000040: 2d8d 3abe 7b7a dabc 5edb 76bd 9596 a4bd
00000050: 87a5 ab3e 0589 a5bc cdb1 573e 8174 043e
00000060: 2861 b83d 5092 babd f2e4 98be 25c7 5dbe
00000070: 6ebc c63d 9a05 1bbd ff24 fc3d 1552 1b3e
00000080: 20d7 83bc 1603 f2bd 8032 1fbe d932 d73c
00000090: c3e0 8dbc 68e1 bc3c c87e 4cbe 0a29 ae3d
000000a0: 7455 84bd b908 67be 1b59 313e adbc 713d
000000b0: 1470 2a3d cb38 92be 6fcb 90bd e1a5 c23d
000000c0: 8b8d 88bd d46e 1b3e 0e2b 9cbc 354e 733e
000000d0: 3019 0a3d 11ef bcbd c485 1ebc d205 70bd
000000e0: da14 8dbe 1dfe 483e efa7 d63d d214 78be
000000f0: 63a7 a23e 46d7 753e 9a7c c0bd 2c57 ecbe
00000100: f69e 7abe 4065 d7bc 1bed d8bc 8a63 6bbd
00000110: 1e70 833e 7192 0abd 9452 903d 97d4 933e
00000120: 765a 3cbd c8ce 073e d83f bebd 1e13 3abe
00000130: f60a 033e 3065 fabd a2a7 303d 24e2 b23d
00000140: 32c6 9c3d eb2e 183e d74e 893d 4b40 b4bd
00000150: 161f 9dbd 6c62 f63d b245 e23d 9c44 56bd
00000160: 132c 26be 5651 58bd efe9 0f3e 2366 263e
00000170: a6d4 99be a3aa ce3d 4f78 1b3d f900 57be
00000180: 9af3 5b3c e3e8 153e 2553 2b3d 3699 133c
00000190: b24c 69be a3a0 42bd ec8e 34be a0ac 2bbe
000001a0: bc33 523e 2e0a cb3d b4b0 443e ba82 c23d
000001b0: 6245 e13d 31a9 cabc 4fbc 5dbe 66fe f03c
000001c0: 2736 133d aad7 603d a293 123d 712c 023e
000001d0: 18cc 5c3d 472b 09be ffad 46be bae4 4d3d
000001e0: 7938 8dbd 1598 3a3d 0f93 393e 77aa 253e
000001f0: 2f51 b43d 8a3d 80bd e91d 50be cc94 a7be
00000200: eb99 23be c8ad 75bd a6ff c33c 80f6 a53d
00000210: 6a6a 7f3e 5b32 7e3e d224 9e3d 4078 a63e
00000220: 7e4a 6dbd d1b1 a4bd 61f4 893e 00fb 463d
00000230: 82d8 dcbe fdf8 1c3e 86df cabc e4db 85be
00000240: 1e0a 3dbe 608f 4d3d 4aed a7bc f340 4b3d
00000250: 6044 563e 2230 0c3d 7fa8 583e 3eab cd3d
00000260: b62a 87be eb83 033e bf06 cb3d 64e1 4d3e
00000270: 8d51 283e 00a8 ac3d 137f a53c a7d6 57be
00000280: 3378 96be 848e b4bd 63cb 3d3e d4b1 893d
00000290: c55f b23e 0742 93bd b7ff 1d3d 117e 23bc
000002a0: 822b 5cbe fa1a b0be 6321 77be 9cd2 1cbe
000002b0: f2dd 5bbe a3f5 0c3d f297 103e e82c 31be
000002c0: 986c d5be 86ff 173e 1b70 8f3e 34ae 373d
000002d0: 2a5b 8f3e 773d f23d ae4e 04be 4254 33be
000002e0: 1f6e a5bd 300d bc3d 7f79 b0bd e661 313e
000002f0: baad 54bd ab18 133e 7cff b0bc e2ef 8f3b
00000300: 7830 c5bc 192c 6fbb 3659 633e 23af b0be
00000310: 1541 c8bd 489f de3d c858 193e e55a 2fbe
00000320: 0e8d 53bd a246 7b3d d3d0 dcbd 9459 1a3c
00000330: 0967 ff3d 46db 0b3e c884 673d 8726 993e
00000340: b079 ea3d b122 0f3e ede7 7fbc 1cc2 d33a
00000350: b6cf c5bd efb6 61be 3cc9 8dbe 0688 d9be
00000360: ed4f 0f3d 0483 e3bd 2e90 5ebe 8054 253e
00000370: f5f2 573e a8d4 c3bd af78 92be 001b b93d
00000380: 1bf1 8f3e e8b0 87be b6b9 b6bd d3de 0d3c
00000390: 8825 b7be 1eff ff3d d93d 063e 1dae 62be
000003a0: 24f9 db3d a051 7b3e 3fc7 4abd b3ba 84bd
000003b0: f6a5 ad3d c293 63be 30b5 ab3d 53b1 793e
000003c0: eaed a4ba aca0 8dbd f030 643c 8b9e 623c
000003d0: 5e63 8c3d cca7 bd3e 3ef8 0abe 2ce0 713d
000003e0: 10c7 7e3e 7c3c c7be 28c0 15be d123 6ebc
000003f0: 0d35 8ebe 4105 14be 873c 0b3d 158e 61be
0.18137102 0.043142073 0.07169885 0.27668956 0.02173086 -0.2372802 0.010531677 -0.14534745
-0.22651756 0.23819382 0.1734532 0.036486153 0.14867587 0.081010446 0.03499855 -0.31744555
-0.18217917 -0.026669731 -0.0602678 -0.08036534 0.33524725 -0.020206938 0.2106392 0.12935068
0.09002906 -0.09109938 -0.2986217 -0.21657999 0.09703909 -0.03784714 0.12311744 0.1516803
-0.01609379 -0.11816995 -0.15546608 0.026269363 -0.017319089 0.0230567 -0.19970238 0.08503921
-0.064616114 -0.22561921 0.17319147 0.059017826 0.041610792 -0.28558955 -0.07070052 0.09504295
-0.06667622 0.15178996 -0.019063499 0.23760302 0.033715427 -0.09225286 -0.009675447 -0.0585993
-0.2755497 0.19628187 0.104812495 -0.24226692 0.3176833 0.24007902 -0.09398766 -0.46160257
-0.24474701 -0.026293397 -0.026480248 -0.057467975 0.25671476 -0.033831064 0.070470005 0.2887313
-0.045984708 0.13262475 -0.09289521 -0.18171355 0.1279715 -0.12226331 0.043128617 0.08734539
0.0765499 0.14861648 0.06704491 -0.088013254 -0.07671945 0.12030491 0.110484496 -0.052311525
-0.1622775 -0.052811943 0.14054082 0.162499 -0.3004505 0.1009114 0.037956532 -0.20996465
0.013424778 0.1463962 0.04182734 0.009008696 -0.22783163 -0.047516476 -0.17632645 -0.1676507
0.20527548 0.09914051 0.19208032 0.0949759 0.10999562 -0.02473888 -0.21653865 0.029418182
0.035940316 0.054893173 0.035785325 0.12712266 0.053905576 -0.13395415 -0.19402312 0.05026696
-0.06895537 0.045555193 0.18122505 0.16178308 0.08804547 -0.06261738 -0.2032391 -0.3273071
-0.15976684 -0.059980184 0.023925614 0.08103657 0.24942937 0.24823897 0.07721867 0.32513618
-0.05793237 -0.08041728 0.2694426 0.048579216 -0.43133932 0.15329356 -0.024764787 -0.26144326
-0.1846089 0.05018556 -0.02049889 0.049622487 0.2092452 0.03422559 0.21158026 0.100424275
-0.26399773 0.12843291 0.09913396 0.20105511 0.16437359 0.08430481 0.020202195 -0.21077977
-0.2938858 -0.08816245 0.18534617 0.06723371 0.3483869 -0.07190328 0.038573947 -0.009978787
-0.21500972 -0.3439558 -0.2413383 -0.15314716 -0.21471384 0.034413945 0.14120463 -0.17302287
-0.41684413 0.14843568 0.28015217 0.044843867 0.2799924 0.1182813 -0.12920639 -0.1751261
-0.080776446 0.09182203 -0.086169235 0.17322502 -0.05192349 0.14364879 -0.0216062 0.00439261
-0.024070963 -0.003649479 0.22202 -0.3450862 -0.097780384 0.10870224 0.14975274 -0.17124517
-0.051648192 0.061346658 -0.107820176 0.009420771 0.12470824 0.13657865 0.056523114 0.29912207
0.11448991 0.13978077 -0.01561926 0.0016155872 -0.09658758 -0.2204244 -0.27692592 -0.4248659
0.034988333 -0.111089736 -0.21734688 0.16145515 0.21088775 -0.09562045 -0.286077 0.09038353
0.28113636 -0.26502156 -0.0892214 0.008659082 -0.35770822 0.124998316 0.1310953 -0.22136731
0.10740879 0.24542856 -0.049506422 -0.064809225 0.0847892 -0.22224334 0.08384168 0.2438405
-0.0012583111 -0.06915411 0.013927683 0.013831745 0.0685489 0.3704208 -0.1357126 0.059051678
0.24880624 -0.38913333 -0.14624083 -0.0145349065 -0.2777485 -0.14455129 0.03399327 -0.22026856

sequential/conv2d_1/Conv2D i1 [64, 3, 3, 32] scale=0.0048669223 zero_point=0
00000000: c3bf c501 cbda d6f4 d6c9 afdf e1e0 f7a7
00000010: d7b7 b6f0 bed4 d7e9 0b01 d2b7 f8fe d70d
00000020: ddbf bdf4 e3e2 da18 f2f3 e00a ecfc 09df
00000030: e8a4 ca04 dfef f4e7 fffa ebdd 01f1 f81c
00000040: f3bb 0b0d eb04 de08 f0fe df16 0a02 20e2
00000050: efb0 baef 09f6 fec3 0c1c f4de 1305 0213
00000060: c8d3 d302 c4cb a0f5 dedc bde7 cfea e8b2
00000070: c6c4 cac8 e004 e0e1 0905 e3e5 d9e9 e10d
00000080: fed3 f9f1 cdf5 abf5 fff8 c9ee e9f7 ffde
00000090: deb6 bcc2 f21c fbe3 1207 f2ed 110d ed15
000000a0: fbe5 19ed ebf9 e202 f00b d807 f107 fcfb
000000b0: 12e3 f9c1 14fc 08fc f70b 03e6 0306 0ff0
000000c0: eac6 d6dd c9d6 cb1c faed c10d f2e7 03d3
000000d0: c9dd c2f0 171a ebe6 1d26 0bed 0d14 051b
000000e0: f5c3 0eee e70a cd11 03e3 c90a fb0a 04de
000000f0: fcaf cae3 15f1 0ed7 ee09 fcfc 1413 0cf7
-0.29688227 -0.31634995 -0.28714842 0.0048669223 -0.25794688 -0.18494305 -0.20441073 -0.058403067
-0.20441073 -0.26768073 -0.3942207 -0.16060844 -0.15087458 -0.15574151 -0.0438023 -0.43315607
-0.19954382 -0.35528532 -0.36015224 -0.07787076 -0.32121688 -0.21414459 -0.19954382 -0.111939214
0.053536147 0.0048669223 -0.22387843 -0.35528532 -0.03893538 -0.009733845 -0.19954382 0.06326999
-0.17034228 -0.31634995 -0.32608378 -0.058403067 -0.14114074 -0.14600767 -0.18494305 0.116806135
-0.068136916 -0.06326999 -0.15574151 0.048669223 -0.097338445 -0.01946769 0.0438023 -0.16060844
-0.116806135 -0.44775686 -0.2628138 0.01946769 -0.16060844 -0.08273768 -0.058403067 -0.121673055
-0.0048669223 -0.029201534 -0.102205366 -0.17034228 0.0048669223 -0.073003836 -0.03893538 0.13627383
-0.06326999 -0.33581764 0.053536147 0.06326999 -0.102205366 0.01946769 -0.16547535 0.03893538
-0.07787076 -0.009733845 -0.16060844 0.107072294 0.048669223 0.009733845 0.15574151 -0.14600767
-0.08273768 -0.38935378 -0.34068456 -0.08273768 0.0438023 -0.048669223 -0.009733845 -0.29688227
0.058403067 0.13627383 -0.058403067 -0.16547535 0.092471525 0.024334611 0.009733845 0.092471525
-0.27254766 -0.2190115 -0.2190115 0.009733845 -0.29201534 -0.25794688 -0.46722454 -0.053536147
-0.16547535 -0.1752092 -0.32608378 -0.121673055 -0.2384792 -0.107072294 -0.116806135 -0.37961993
-0.2822815 -0.29201534 -0.2628138 -0.27254766 -0.15574151 0.01946769 -0.15574151 -0.15087458
0.0438023 0.024334611 -0.14114074 -0.1314069 -0.18980996 -0.111939214 -0.15087458 0.06326999
-0.009733845 -0.2190115 -0.034068458 -0.073003836 -0.24821304 -0.053536147 -0.4136884 -0.053536147
-0.0048669223 -0.03893538 -0.26768073 -0.0876046 -0.111939214 -0.0438023 -0.0048669223 -0.16547535
-0.16547535 -0.36015224 -0.3309507 -0.30174917 -0.068136916 0.13627383 -0.024334611 -0.14114074
0.0876046 0.034068458 -0.068136916 -0.092471525 0.08273768 0.06326999 -0.092471525 0.102205366
-0.024334611 -0.1314069 0.121673055 -0.092471525 -0.102205366 -0.034068458 -0.14600767 0.009733845
-0.07787076 0.053536147 -0.19467689 0.034068458 -0.073003836 0.034068458 -0.01946769 -0.024334611
0.0876046 -0.14114074 -0.034068458 -0.3066161 0.097338445 -0.01946769 0.03893538 -0.01946769
-0.0438023 0.053536147 0.014600767 -0.12653998 0.014600767 0.029201534 0.073003836 -0.07787076
-0.107072294 -0.2822815 -0.20441073 -0.17034228 -0.26768073 -0.20441073 -0.25794688 0.13627383
-0.029201534 -0.092471525 -0.3066161 0.06326999 -0.068136916 -0.121673055 0.014600767 -0.2190115
-0.26768073 -0.17034228 -0.30174917 -0.07787076 0.111939214 0.12653998 -0.102205366 -0.12653998
0.14114074 0.18494305 0.053536147 -0.092471525 0.06326999 0.097338445 0.024334611 0.1314069
-0.053536147 -0.29688227 0.068136916 -0.0876046 -0.121673055 0.048669223 -0.24821304 0.08273768
0.014600767 -0.14114074 -0.26768073 0.048669223 -0.024334611 0.048669223 0.01946769 -0.16547535
-0.01946769 -0.3942207 -0.2628138 -0.14114074 0.102205366 -0.073003836 0.068136916 -0.19954382
-0.0876046 0.0438023 -0.01946769 -0.01946769 0.097338445 0.092471525 0.058403067 -0.0438023
