app/src/main/assets/mnist-aug.tflite (tflite, 114912 bytes, 6 tensors)

sequential_1/conv2d_2/BiasAdd/ReadVariableOp/resource f4 [32]
0.09253287 -0.0122565 -0.0041449564 0.091880724 0.106643364 0.01898247 -0.005793227 0.044335444
-0.0069476566 0.03206516 -0.0026493657 -0.0068645612 0.0 0.05964452 -0.016551122 -0.0052710613
-0.0067068962 -0.016093295 -0.017045105 0.026215136 0.010667434 -0.005767383 0.0 -0.010837579
-0.01704893 -0.022706265 -0.008231273 0.007619243 0.017197227 -0.025390614 -0.003185236 -0.03597264
00000000: e081 bd3d 7dcf 48bc 6ad2 87bb f62b bc3d
00000010: d667 da3d 2081 9b3c 1cd5 bdbb 1599 353d
00000020: 2ba9 e3bb c256 033d fba0 2dbb 1df0 e0bb
00000030: 0000 0000 d04d 743d 3896 87bc deb8 acbb
00000040: 86c5 dbbb 16d6 83bc 2da2 8bbc 20c1 d63c
00000050: 76c6 2e3c 51fc bcbb 0000 0000 1a90 31bc
00000060: 33aa 8bbc 7d02 babc 76dc 06bc d8aa f93b
00000070: 33e1 8c3c faff cfbc 64bf 50bb 0c58 13bd

sequential_1/conv2d_3/BiasAdd/ReadVariableOp/resource f4 [64]
-0.043557998 -0.10655222 0.0040663173 -0.0078006648 -0.019087998 0.027795019 -0.012598375 -0.013035208
0.039154127 -0.073516384 0.007044199 -0.015008549 0.080264926 -0.014494356 -0.025831245 -0.036518674
0.06749915 0.10301079 0.007954835 0.08223267 -0.04311543 0.023412025 -0.01836533 -0.035903104
-0.027155027 0.0498461 -0.00913039 -0.0033343784 -0.030354878 -0.028629757 -0.012509696 -0.011149586
0.04526725 -0.05102862 0.0013409917 0.02711061 -0.009090263 0.0030281532 0.0047485395 0.005598451
0.08710655 -0.035727847 0.034279697 -0.009148212 0.0040195626 0.0051783035 0.019196924 0.09704875
-0.011473318 0.010946363 0.04824182 -0.022290375 0.020044046 -0.0028403301 0.012848782 0.070512176
0.016956609 -0.00836965 0.0012011722 0.0064895796 -0.044630032 0.018673122 -0.054400165 0.02358242
00000000: df69 32bd 0d38 dabd be3e 853b b89c ffbb
00000010: 6f5e 9cbc 61b2 e33c 6a69 4ebc a091 55bc
00000020: 1460 203d c28f 96bd 06d3 e63b 6be6 75bc
00000030: f061 a43d bc79 6dbc 0c9c d3bc 9b94 15bd
00000040: ff3c 8a3d 52f7 d23d ff54 023c 9a69 a83d
00000050: ce99 30bd 93ca bf3c e372 96bc 220f 13bd
00000060: 3874 debc 6d2b 4c3d a297 15bc 9685 5abb
00000070: cbaa f8bc f488 eabc 78f5 4cbc c1ac 36bc
00000080: 276a 393d 6303 51bd 37c4 af3a 1217 de3c
00000090: 54ef 14bc fb73 463b a399 9b3b 3673 b73b
000000a0: eb64 b23d 5d57 12bd de68 0c3d 62e2 15bc
000000b0: 89b6 833b c2ae a93b de42 9d3c 7fc1 c63d
000000c0: 95fa 3bbc 6058 333c 3799 453d 4e9a b6bc
000000d0: 6933 a43c d524 3abb b383 523c b068 903d
000000e0: 96e8 8a3c db20 09bc a770 9d3a 8aa6 d43b
000000f0: fbcd 36bd 60f8 983c b5d2 5ebd eb2f c13c

sequential_1/dense_1/BiasAdd/ReadVariableOp/resource f4 [10]
0.086435825 0.22159544 -0.09179499 -0.13012375 -0.032782532 -0.044152185 0.038690764 0.02900006
-0.09811216 0.081989735
00000000: 4405 b13d eae9 623e 03ff bbbd 293f 05be
00000010: fa46 06bd ecd8 34bd 357a 1e3d 8991 ed3c
00000020: 07ef c8bd 3cea a73d

sequential_1/dense_1/MatMul i1 [10, 9216] scale=0.0067915237 zero_point=0
-0.20374571 -0.27166095 -0.142622 -0.013583047 0.061123714 -0.48219818 0.027166095 -0.02037457
0.08149828 -0.13583048 -0.027166095 0.0 -0.23770332 0.013583047 -0.19016266 0.142622
-0.04074914 -0.02037457 0.16978809 -0.04074914 -0.02037457 -0.04074914 -0.0067915237 0.15620504
-0.0067915237 -0.2512864 0.013583047 -0.6044456 -0.35995075 -0.2580779 -0.13583048 -0.13583048
-0.27845246 -0.03395762 0.0 -0.20374571 -0.23770332 0.06791524 -0.37353382 -0.06791524
0.04074914 0.15620504 -0.1154559 -0.09508133 0.08149828 -0.26486942 -0.16299656 -0.142622
-0.37353382 -0.5433219 -0.12224743 0.0067915237 -0.142622 0.03395762 -0.20374571 -0.19695419
-0.101872854 -0.027166095 0.047540665 -0.05433219 0.0067915237 0.088289805 0.0067915237 -0.3124101
-0.09508133 -0.06791524 -0.21732876 -0.0067915237 -0.047540665 -0.44824055 0.013583047 -0.0067915237
0.0 -0.02037457 -0.101872854 0.0067915237 -0.12903894 -0.027166095 0.12224743 0.013583047
-0.05433219 0.03395762 0.05433219 -0.088289805 -0.12903894 -0.1154559 0.0 0.047540665
-0.013583047 -0.24449486 -0.027166095 -0.45503208 -0.34636772 -0.15620504 -0.08149828 0.12224743
-0.18337114 -0.0067915237 -0.047540665 -0.13583048 -0.29203552 0.0067915237 -0.30561855 -0.06791524
0.05433219 0.12903894 -0.02037457 -0.15620504 -0.013583047 -0.20374571 -0.027166095 -0.02037457
-0.14941353 -0.48219818 -0.2309118 0.0067915237 -0.07470676 -0.03395762 -0.20374571 -0.13583048
-0.12903894 -0.04074914 0.1154559 -0.16299656 0.0067915237 0.088289805 -0.05433219 -0.2512864
-0.10866438 -0.02037457 -0.06791524 0.02037457 -0.027166095 -0.26486942 0.013583047 0.02037457
-0.05433219 0.02037457 -0.04074914 0.027166095 -0.16299656 0.0067915237 0.12224743 -0.03395762
-0.20374571 0.013583047 0.05433219 -0.13583048 -0.06791524 -0.14941353 -0.0067915237 0.08149828
0.02037457 -0.21732876 0.0067915237 -0.18337114 -0.29882705 -0.44824055 -0.15620504 0.1154559
-0.15620504 -0.0067915237 -0.12224743 -0.142622 -0.37353382 -0.07470676 -0.27845246 -0.07470676
0.04074914 0.047540665 -0.05433219 -0.23770332 0.03395762 -0.27166095 0.088289805 -0.013583047
-0.02037457 -0.38032532 -0.06791524 0.02037457 -0.12903894 -0.027166095 -0.27166095 -0.2309118
-0.15620504 -0.101872854 0.19016266 -0.0067915237 0.088289805 -0.08149828 0.0067915237 -0.09508133
-0.02037457 0.1154559 -0.0067915237 0.0067915237 0.0 -0.27166095 0.0067915237 0.02037457
-0.027166095 -0.07470676 -0.1154559 -0.02037457 -0.03395762 -0.02037457 0.14941353 -0.101872854
-0.09508133 -0.013583047 0.05433219 -0.1154559 -0.06791524 -0.16978809 0.0 0.07470676
0.0 -0.14941353 0.0067915237 -0.3124101 -0.20374571 -0.44144905 -0.15620504 0.12224743
-0.04074914 0.088289805 -0.05433219 -0.101872854 -0.3124101 -0.02037457 -0.32599312 -0.16299656
0.08149828 -0.027166095 -0.07470676 -0.22412027 0.0 -0.10866438 0.05433219 0.02037457
-0.12224743 -0.40749142 -0.027166095 0.0 -0.18337114 -0.027166095 -0.30561855 -0.14941353
-0.06791524 -0.05433219 0.22412027 -0.047540665 0.061123714 -0.06791524 0.03395762 -0.12903894
00000000: e2d8 ebfe 09b9 04fd 0cec fc00 dd02 e415
00000010: fafd 19fa fdfa ff17 ffdb 02a7 cbda ecec
00000020: d7fb 00e2 dd0a c9f6 0617 eff2 0cd9 e8eb
00000030: c9b0 ee01 eb05 e2e3 f1fc 07f8 010d 01d2
00000040: f2f6 e0ff f9be 02ff 00fd f101 edfc 1202
00000050: f805 08f3 edef 0007 fedc fcbd cde9 f412
00000060: e5ff f9ec d501 d3f6 0813 fde9 fee2 fcfd
00000070: eab9 de01 f5fb e2ec edfa 11e8 010d f8db
00000080: f0fd f603 fcd9 0203 f803 fa04 e801 12fb
00000090: e202 08ec f6ea ff0c 03e0 01e5 d4be e911
000000a0: e9ff eeeb c9f5 d7f5 0607 f8dd 05d8 0dfe
000000b0: fdc8 f603 edfc d8de e9f1 1cff 0df4 01f2
000000c0: fd11 ff01 00d8 0103 fcf5 effd fbfd 16f1
000000d0: f2fe 08ef f6e7 000b 00ea 01d2 e2bf e912
000000e0: fa0d f8f1 d2fd d0e8 0cfc f5df 00f0 0803
000000f0: eec4 fc00 e5fc d3ea f6f8 21f9 09f6 05ed

sequential_1/conv2d_2/Conv2D f4 [32, 3, 3, 1]
-0.85716015 -0.27614784 -0.14084645 -0.51671493 0.012584661 0.3329928 -0.40789738 0.0068005538
0.267498 0.18932176 0.21320884 0.19194575 0.08306722 0.017500618 -0.32129124 0.32503247
-0.13415639 -0.44409707 0.09018795 0.15456955 0.07545632 0.19919753 -0.004766943 -0.33244145
0.2511364 0.054317728 -0.40226614 0.364476 0.2406389 0.006112012 0.12319825 0.25721967
-0.3394678 -0.3668947 -0.52546954 -0.7646902 -0.67292917 -0.36737576 -0.82275295 0.013425357
0.19835001 -0.311775 0.3301779 0.19466396 0.025711816 -0.5792344 0.20948964 0.26997307
-0.36239603 0.29859173 0.3569444 -0.9038621 0.047958232 -0.028115926 -0.3416425 -0.010956599
0.1758691 -0.17362428 -0.046044175 -0.175471 0.32724452 0.25631866 -0.09695489 0.3595181
0.06999036 -0.3224872 0.21029356 -0.122220546 -0.23971578 0.22594947 -0.17673789 -0.46111843
0.31883404 -0.12454817 0.012826156 0.16492097 -0.06622814 -0.025213376 0.090616636 0.014458984
0.092080764 0.20506813 0.22892052 0.3456454 -0.093080066 0.112961225 -0.116513394 -0.5702236
-0.26991758 -0.45464823 0.24322303 0.3005931 0.2548424 -0.17275552 -0.016684571 0.22509353
-0.4661676 -0.29095158 0.014718938 0.20246357 0.112866156 0.16013496 -0.2571397 -0.059482403
0.20795588 0.0482907 -0.073434696 0.086624645 -0.13675386 -0.07460309 -0.089263156 -0.08495086
-0.14073874 -0.13813867 -0.031598113 -0.015566185 -0.09715721 0.29075423 0.07683097 0.020286294
0.036898404 -0.07201126 -0.4271049 -0.17885116 -0.4136072 -0.97859377 0.13896686 -0.061940894
-0.04163951 0.068964 -0.13709402 -0.06101595 -0.031353913 0.059073377 0.15084139 -0.56068563
-0.35552987 -0.24674238 -0.27727053 -0.057770632 0.14699057 0.086779974 0.27799502 0.41555804
0.5032119 -0.011312139 -0.26273477 0.16186292 -0.110466644 0.10951658 -0.13761736 -0.101129025
-0.032341313 0.12041327 0.19556798 0.24415113 -0.067474365 -0.21911414 -0.11829721 0.054651607
0.043822583 0.03290046 0.005168696 -0.012537997 -0.097871795 -0.030061206 -0.0132771 0.12604174
0.16837202 0.10608047 0.19633369 0.23824523 0.08634591 -0.17994213 0.23384802 0.2188858
-0.3524486 0.17081955 -0.15599631 -0.5917107 0.09720484 0.18677129 0.30978522 0.1025222
0.12030213 0.08703688 -0.17656064 -0.37953824 -0.2770881 -0.42418304 -0.26186797 0.071881294
-0.13238968 0.067165084 0.21129808 0.010334566 0.1824685 0.34084263 -0.067830935 -0.09438354
-0.08907336 -0.0053242147 -0.11963204 -0.12717645 -0.118278384 -0.10401632 -0.1348777 0.061214253
0.24240242 0.30590925 -0.15185536 0.0013378591 0.23287219 -0.48625717 -0.27095902 0.18223037
-0.022211567 -0.07661799 0.00941383 0.1739032 -0.19159317 -0.19621386 0.5181669 0.21371378
-0.15662843 -0.37204003 0.01771591 0.32506993 -0.35409835 0.071528845 0.077901416 -0.00012834492
0.20862424 0.25143793 -0.016713396 -0.2748713 -0.48075226 0.238436 0.18148358 -0.13540699
0.24020469 0.2345328 0.13940704 -0.23966481 -0.19717897 -0.038251024 -0.32597056 0.01608061
0.22940959 -0.06921025 0.24757962 0.44290173 -0.02082913 -0.20012201 -0.5555333 0.36015433
00000000: d96e 5bbf 4063 8dbe 0d3a 10be 6e47 04bf
00000010: e52f 4e3c 087e aa3e edd7 d0be 2ed7 de3b
00000020: 7ff5 883e 90dd 413e 6b53 5a3e 6d8d 443e
00000030: 261f aa3d 755d 8f3c 4980 a4be a86a a63e
00000040: 4b60 09be b160 e3be 76b4 b83d 7b47 1e3e
00000050: d888 9a3d 70fa 4b3e 0434 9cbb c435 aabe
00000060: f394 803e 447c 5e3d d4f5 cdbe 999c ba3e
00000070: 0b6a 763e 4647 c83b 5d4f fc3d 4cb2 833e
00000080: b9ce adbe 9fd9 bbbe 2c85 06bf bdc2 43bf
00000090: 1645 2cbf ad18 bcbe f09f 52bf 07f6 5b3c
000000a0: 441c 4b3e f9a0 9fbe 140d a93e fd55 473e
000000b0: 96a1 d23c b548 14bf 7484 563e e939 8a3e
000000c0: f98b b9be 04e1 983e 6bc1 b63e 8263 67bf
000000d0: da6f 443d 5f53 e6bc c4eb aebe 4f83 33bc
000000e0: 0817 343e 90ca 31be d198 3cbd abae 33be
000000f0: 988c a73e 333c 833e 4990 c6bd c212 b83e
00000100: 1b57 8f3d 0b1d a5be 3257 573e c44e fabd
00000110: 0e78 75be 4c5f 673e c7fa 34be b717 ecbe
00000120: 373e a33e 1c13 ffbd cc24 523c 0be1 283e
00000130: 9ea2 87bd 488c cebc 3795 b93d 60e5 6c3c
00000140: d794 bc3d 61fd 513e 246a 6a3e 6ff8 b03e
00000150: c3a0 bebd 3758 e73d 939e eebd 2dfa 11bf
00000160: a332 8abe a7c7 e8be 750f 793e 57e7 993e
00000170: b47a 823e d3e6 30be 15ae 88bc eb7e 663e
00000180: 85ad eebe 9bf7 94be b327 713c 9c52 4f3e
00000190: 5f26 e73d 6bfa 233e d1a7 83be d2a3 73bd
000001a0: 63f2 543e 78cc 453d ee64 96bd 4368 b13d
000001b0: 3409 0cbe 81c9 98bd 9acf b6bd b7fa adbd
000001c0: d11d 10be 3974 0dbe 066d 01bd 5009 7fbc
000001d0: 5cfa c6bd bddd 943e 8e59 9d3d 712f a63c
000001e0: c822 173d a47a 93bd 7ead dabe c224 37be
000001f0: 53c4 d3be 1f85 7abf 544d 0e3e bcb5 7dbd
00000200: 318e 2abd ff3c 8d3d 6062 0cbe dceb 79bd
00000210: f66c 00bd edf6 713d 2a76 1a3e 1889 0fbf
00000220: 0308 b6be 09aa 7cbe 67f6 8dbe e6a0 6cbd
00000230: b284 163e b3b9 b13d 5d55 8e3e 06c4 d43e
00000240: 7fd2 003f 8d56 39bc 2c85 86be 65bf 253e
00000250: 563c e2bd 3b4a e03d 91eb 0cbe bc1c cfbd
00000260: 5378 04bd 3c9b f63d f942 483e c102 7a3e
00000270: 0030 8abd 755f 60be cf45 f2bd 5dda 5f3d
00000280: 4f7f 333d a2c2 063d 2a5e a93b 2c6c 4dbc
00000290: 0271 c8bd eb42 f6bc 3288 59bc 1611 013e
000002a0: b769 2c3e b840 d93d b30b 493e 8ff6 733e
000002b0: 20d6 b03d c042 38be db75 6f3e 9923 603e
000002c0: 2574 b4be 52eb 2e3e 7fbd 1fbe 5a7a 17bf
000002d0: 5513 c73d f940 3f3e 2b9c 9e3e 29f7 d13d
000002e0: f760 f63d 6440 b23d 50cc 34be d652 c2be
000002f0: 7ede 8dbe 852e d9be 8f13 86be 8036 933d
00000300: 2991 07be d98d 893d 865e 583e 5052 293c
00000310: 06d9 3a3e ed82 ae3e f2ea 8abd 284c c1bd
00000320: 186c b6bd c076 aebb a501 f5bd 8b3a 02be
00000330: f03b f2bd 8206 d5bd 611d 0abe ccbb 7a3d
00000340: 5738 783e 23a0 9c3e f97f 1bbe 1a5b af3a
00000350: 0c76 6e3e b3f6 f8be 24bb 8abe 999a 3a3e
00000360: 08f5 b5bc e5e9 9cbd 773c 1a3c ae13 323e
00000370: 0031 44be 49ec 48be 96a6 043f c9d7 5a3e
00000380: 3463 20be 087c bebe f520 913c 916f a63e
00000390: 614c b5be b77d 923d c78a 9f3d 5494 06b9
000003a0: 98a1 553e 79bc 803e 88ea 88bc eebb 8cbe
000003b0: 2925 f6be 9128 743e d5d6 393e 21a8 0abe
000003c0: 38f8 753e 5e29 703e b8c0 0e3e b16a 75be
000003d0: 49e9 49be 1bad 1cbd 9de5 a6be 7cbb 833c
000003e0: 59ea 6a3e 1bbe 8dbd 8385 7d3e 04c4 e23e
000003f0: daa1 aabc c9ec 4cbe 6e37 0ebf 2666 b83e

sequential_1/conv2d_3/Conv2D i1 [64, 3, 3, 32] scale=0.010658798 zero_point=0
-0.29844633 0.106587976 0.08527038 0.15988196 -0.08527038 -0.12790558 0.29844633 0.12790558
0.04263519 0.20251715 0.17054076 0.11724678 0.0 0.07461158 0.031976394 0.23449355
0.08527038 0.11724678 -0.031976394 0.12790558 0.07461158 0.17054076 0.021317596 -0.021317596
-0.07461158 0.06395279 0.021317596 0.11724678 -0.09592918 0.07461158 0.22383475 0.09592918
-0.24515235 0.11724678 -0.021317596 0.053293988 -0.14922316 -0.23449355 0.27712876 0.14922316
-0.010658798 -0.06395279 -0.18119957 0.04263519 0.08527038 -0.031976394 0.106587976 -0.010658798
0.031976394 -0.021317596 -0.031976394 0.07461158 0.0 0.021317596 -0.053293988 -0.17054076
0.106587976 0.031976394 -0.14922316 -0.14922316 -0.22383475 0.031976394 -0.021317596 -0.04263519
-0.17054076 0.0 0.11724678 0.031976394 -0.031976394 -0.34108153 0.04263519 0.11724678
-0.08527038 0.021317596 -0.17054076 -0.19185837 -0.07461158 0.13856438 0.07461158 -0.22383475
0.04263519 -0.08527038 -0.08527038 0.12790558 -0.11724678 -0.22383475 0.07461158 -0.39437553
0.021317596 -0.19185837 -0.27712876 -0.17054076 -0.28778753 -0.021317596 -0.29844633 0.021317596
-0.06395279 -0.11724678 0.04263519 0.010658798 -0.053293988 -0.106587976 -0.053293988 -0.053293988
0.0 0.021317596 0.15988196 0.053293988 0.021317596 0.04263519 0.031976394 -0.08527038
0.06395279 -0.010658798 -0.07461158 -0.010658798 0.09592918 -0.07461158 -0.010658798 -0.021317596
-0.09592918 -0.21317595 -0.07461158 -0.19185837 0.021317596 0.106587976 0.021317596 -0.010658798
-0.106587976 -0.021317596 0.04263519 0.08527038 -0.053293988 -0.29844633 -0.14922316 -0.031976394
0.04263519 -0.021317596 0.010658798 -0.053293988 -0.010658798 0.08527038 0.06395279 -0.08527038
-0.021317596 -0.08527038 -0.13856438 -0.031976394 -0.010658798 -0.031976394 0.053293988 -0.13856438
-0.021317596 -0.4263519 -0.20251715 -0.09592918 -0.12790558 0.010658798 -0.14922316 0.021317596
0.0 0.010658798 -0.04263519 0.106587976 0.053293988 -0.23449355 -0.37305793 0.053293988
-0.010658798 -0.07461158 -0.24515235 -0.17054076 0.06395279 0.07461158 -0.010658798 0.010658798
0.053293988 -0.08527038 -0.33042273 0.04263519 -0.04263519 -0.22383475 -0.021317596 -0.23449355
-0.22383475 -0.4050343 -0.4689871 -0.17054076 -0.14922316 -0.021317596 -0.4263519 0.053293988
0.021317596 -0.13856438 -0.09592918 0.08527038 0.106587976 -0.08527038 -0.106587976 -0.09592918
-0.22383475 0.30910513 0.25581115 0.09592918 0.0 -0.010658798 -0.09592918 0.15988196
0.010658798 -0.07461158 -0.25581115 -0.14922316 0.17054076 0.010658798 0.06395279 0.26646996
-0.58623385 -0.36239913 -0.4689871 -0.010658798 -0.053293988 -0.010658798 -0.27712876 0.0
-0.021317596 0.021317596 -0.06395279 0.11724678 0.106587976 -0.19185837 0.15988196 -0.04263519
-0.021317596 0.13856438 0.0 0.053293988 0.06395279 0.106587976 -0.031976394 0.0
0.053293988 -0.031976394 -0.24515235 0.07461158 -0.031976394 -0.09592918 -0.010658798 -0.021317596
-0.29844633 -0.30910513 -0.26646996 0.031976394 -0.06395279 0.010658798 -0.07461158 -0.06395279
00000000: e40a 080f f8f4 1c0c 0413 100b 0007 0316
00000010: 080b fd0c 0710 02fe f906 020b f707 1509
00000020: e90b fe05 f2ea 1a0e fffa ef04 08fd 0aff
00000030: 03fe fd07 0002 fbf0 0a03 f2f2 eb03 fefc
00000040: f000 0b03 fde0 040b f802 f0ee f90d 07eb
00000050: 04f8 f80c f5eb 07db 02ee e6f0 e5fe e402
00000060: faf5 0401 fbf6 fbfb 0002 0f05 0204 03f8
00000070: 06ff f9ff 09f9 fffe f7ec f9ee 020a 02ff
00000080: f6fe 0408 fbe4 f2fd 04fe 01fb ff08 06f8
00000090: fef8 f3fd fffd 05f3 fed8 edf7 f401 f202
000000a0: 0001 fc0a 05ea dd05 fff9 e9f0 0607 ff01
000000b0: 05f8 e104 fceb feea ebda d4f0 f2fe d805
000000c0: 02f3 f708 0af8 f6f7 eb1d 1809 00ff f70f
000000d0: 01f9 e8f2 1001 0619 c9de d4ff fbff e600
000000e0: fe02 fa0b 0aee 0ffc fe0d 0005 060a fd00
000000f0: 05fd e907 fdf7 fffe e4e3 e703 fa01 f9fa
